model4.pth (torch_old, 58178 bytes, 8 tensors)

fc.0.weight f4 [128, 37]
0	0x3ddc3633	0.10752525
1	0x3cb16e1c	0.02165895
2	0xbe5a3fd3	-0.2131341
3	0xbe94ff4f	-0.29101035
4	0xbebe8104	-0.37207806
5	0xbe30f818	-0.1728214
6	0xbc577fb6	-0.013153007
7	0x3e07b0a0	0.13250971
8	0x3dd906ab	0.10596975
9	0x3e8889e7	0.2666771
10	0x3e097b16	0.1342586
11	0xbe79eeb4	-0.24407464
12	0xbeb1c7d7	-0.34722778
13	0x3d149efe	0.03628444
14	0xbed62733	-0.41826782
15	0xbd6ff6d6	-0.05858501
16	0x3df14229	0.11780197
17	0xb99f7b72	-0.00030418817
18	0xbe1aec75	-0.15129264
19	0xbd3e5c73	-0.046474885
20	0xbdace53a	-0.08442159
21	0x3e11db94	0.14243919
22	0x3d31f8d4	0.04345019
23	0x3d4c73d0	0.049915135
24	0x3e980166	0.29688567
25	0xbc4f0c2f	-0.012637182
26	0x3e0531fb	0.13007347
27	0xbe9577b6	-0.29192895
28	0xbe2ec5c7	-0.17067634
29	0x3dd713f4	0.10501853
30	0xbce3af00	-0.027793407
31	0x3dda3d7c	0.106562585
32	0xbe633499	-0.22188033
33	0xbe26c7ee	-0.16287205
34	0x3d94e03d	0.072693326
35	0xbd87dd0e	-0.0663396
36	0xbc7dc5b2	-0.015489029
37	0x3da283e0	0.079353094
38	0x3dcce314	0.10004249
39	0x3d749bc4	0.059718862
40	0xbd4bdf02	-0.049773224
41	0xbd73d4e4	-0.0595292
42	0xbb99a3ad	-0.004688701
43	0xbdb8ba06	-0.09019856
44	0xbe30b767	-0.17257462
45	0xbe2b1254	-0.1670621
46	0x3e05627c	0.1302585
47	0x3d419b0e	0.047267012
48	0xbd9a7797	-0.07542341
49	0x3cd30807	0.025760664
50	0x3dad5db9	0.08465142
51	0x3dd6b1de	0.10483144
52	0x3d739100	0.059464455
53	0xbd0151db	-0.031572204
54	0x3e0bed5c	0.13664764
55	0xbe0dfc9c	-0.13865894
56	0x3d051740	0.032492876
57	0xbe630e2d	-0.22173376
58	0xbdc1409e	-0.09436153
59	0xbdb2b9b4	-0.08726826
60	0x3dafc026	0.08581571
61	0x3e948e50	0.29014826
62	0xbd35fd2d	-0.0444309
63	0xbccc7c59	-0.024961637
64	0x3d6b6012	0.057464667
65	0xbcdec97a	-0.02719568
66	0x3e3d8bb8	0.1851033
67	0x3e6664de	0.22499415
68	0xbd36955b	-0.04457603
69	0xbe887620	-0.26652622
70	0xbe33aa68	-0.17545474
71	0xbf7c1140	-0.9846382
72	0x3c64894c	0.01394875
73	0x3b958dca	0.0045640217
74	0xbdb84a10	-0.08998501
75	0x3e0a7047	0.13519393
76	0x3e08f9c6	0.13376531
77	0x3e89ceae	0.26915497
78	0x3eb9c574	0.36283457
79	0xbea57f32	-0.32323605
80	0xbe8955e7	-0.2682335
81	0x3e39b116	0.18133959
82	0x3ec065d1	0.3757768
83	0xbd1c84e8	-0.038212687
84	0xbd7b838b	-0.061404746
85	0xbdd9c4c5	-0.10633234
86	0x3a94d28e	0.0011354254
87	0x3d2116d9	0.03932843
88	0x3dd06dab	0.101771675
89	0xbe47bbd7	-0.19505249
90	0xbc91b12c	-0.017784677
91	0x3da4fc0c	0.080558866
92	0x3e42ede2	0.19036058
93	0x3e5c6e4b	0.21526448
94	0xbeb43371	-0.35195497
95	0xbde0d92b	-0.109789215
96	0x3e6e9338	0.23298347
97	0xbdc4fa8b	-0.096181
98	0x3b8f77d2	0.0043782974
99	0xbe96624d	-0.29371873
100	0x3e2fb6f2	0.17159632
101	0x3e0ed73d	0.13949294
102	0x3c1b734b	0.009487937
103	0xbd908257	-0.0705611
104	0xbe9a601c	-0.3015145
105	0xbd93060f	-0.0717889
106	0xbcd44586	-0.025912058
107	0xbc5d1065	-0.013492678
108	0x3ddd2b0a	0.10799225
109	0x3c54df97	0.012992761
110	0xbd8382c3	-0.06421425
111	0x3e17052d	0.14748068
112	0xbe90978d	-0.28240624
113	0x3e8b8a44	0.27253926
114	0xbcd1455e	-0.025545772
115	0xbec86428	-0.39138913
116	0x3c03b567	0.008038855
117	0x3d906ccf	0.070520036
118	0x3a935f6c	0.0011243648
119	0xbce51117	-0.02796225
120	0x3e09d977	0.13461863
121	0xbd7d7e4c	-0.061888024
122	0xbc4749ef	-0.012163623
123	0x3e2fd47a	0.17170897
124	0xbe88ece1	-0.26743224
125	0xbce69b61	-0.028150262
126	0x3da60839	0.08107037
127	0xbe19eaba	-0.15030947
128	0xbd8c384f	-0.068466775
129	0xbe7a43eb	-0.24439971
130	0xbe33f708	-0.17574704
131	0x3d61f33f	0.05516362
132	0xbe086584	-0.13319975
133	0x3c732bfe	0.0148420315
134	0x3dd4052c	0.10352549
135	0x3cf377a6	0.029720139
136	0xbccb7cdf	-0.024839817
137	0xbca4f773	-0.020137524
138	0x3d1599a0	0.03652346
139	0x3e793f37	0.24340521
140	0x3e81cd6e	0.25352043
141	0x3e81844e	0.25296253
142	0xbd111d09	-0.03542808
143	0xbd35ce0b	-0.04438595
144	0xbdac445a	-0.084114745
145	0x3d42d8d9	0.047570083
146	0x3e25b394	0.16181785
147	0xbc62f419	-0.013852143
148	0xbe393092	-0.18084934
149	0xbcfb98af	-0.030712454
150	0xbe65d43a	-0.2244424
151	0xbc811fd6	-0.01576225
152	0x3db2a93d	0.08723686
153	0x3e08700e	0.13323995
154	0xbda2d52d	-0.07950816
155	0xbdc9e3d5	-0.09857909
156	0xbe82777c	-0.25481784
157	0xbe757b53	-0.23972826
158	0xbdda8b3d	-0.10671089
159	0xbdb4d70e	-0.08830081
160	0x3c5e90f3	0.013584363
161	0x3c8c7f4e	0.017150547
162	0xbe118617	-0.14211307
163	0xbe768a40	-0.24076176
164	0x3d36411d	0.04449569
165	0x3db605d0	0.088878274
166	0xbe742965	-0.23843916
167	0x3e8096b4	0.25114977
168	0xbd9deff1	-0.07711781
169	0xbe16ad87	-0.14714633
170	0x3deb4730	0.11488187
171	0x3d29a7cc	0.04141979
172	0x3e4d3ace	0.20041963
173	0x3e1e1e16	0.15441164
174	0xbea40626	-0.3203594
175	0x3d38f144	0.045151964
176	0xbd758b4e	-0.059947304
177	0xbe761995	-0.24033196
178	0x3e2b8824	0.16751152
179	0xbdd31562	-0.10306813
180	0xbd496796	-0.049171053
181	0xbe5d988b	-0.21640222
182	0x3e6b95b2	0.23006323
183	0x3d766adf	0.060160514
184	0x3ca45e23	0.02006442
185	0xbd57cc5c	-0.052685127
186	0xbd01cec9	-0.031691346
187	0xbd33acd8	-0.04386601
188	0x3df19175	0.11795322
189	0x3e00cdc7	0.12578498
190	0x3ec8b17d	0.39197913
191	0xbdc09fe3	-0.09405496
192	0xbf2a06f9	-0.6641689
193	0xbeae34fe	-0.34024805
194	0xbfcc48b4	-1.5959687
195	0xbdeebf9a	-0.11657639
196	0x3c0b5b6e	0.008505685
197	0x3ce3e1a6	0.027817558
198	0xbe1d1ac1	-0.15342237
199	0xbc85cf43	-0.016334182
200	0xbd881e16	-0.066463634
201	0x3e32e0f5	0.17468627
202	0xbe07677b	-0.13223068
203	0xbd09987b	-0.033592682
204	0x3b94a667	0.0045364383
205	0x3dcbe0d8	0.09954995
206	0x3d1bcee6	0.03803911
207	0x3d25ab48	0.04044655
208	0x3e5e6edf	0.21721981
209	0x3e4b578d	0.19857617
210	0xbdb9a10f	-0.090639226
211	0x3daf2229	0.085514374
212	0x3dcb4372	0.099249735
213	0xbd971e37	-0.0737881
214	0x3b27bc51	0.0025594423
215	0xbd859ba3	-0.06523826
216	0x3d2fdd18	0.04293546
217	0x3d2acb6b	0.0416979
218	0x3d10d684	0.035360828
219	0xbd9a7fb4	-0.07543889
220	0x3bc1bb49	0.0059122187
221	0x3d2f4269	0.042787943
222	0x3d910c0b	0.07082375
223	0xbd9bd50a	-0.07608993
224	0xbd1738b1	-0.0369193
225	0x3dec368d	0.11533842
226	0xbe1a17eb	-0.15048186
227	0xbd911745	-0.070845164
228	0xbdc68e63	-0.09695127
229	0x3c66196f	0.01404415
230	0x3dfd1902	0.123582855
231	0x3e0611a6	0.1309267
232	0xbd6ad801	-0.057334904
233	0x3e33a3b7	0.17542921
234	0x3d3dcce8	0.046337992
235	0x3dc724b0	0.097237945
236	0x3dee601c	0.11639425
237	0xbda3552b	-0.07975229
238	0xbddd54c8	-0.10807186
239	0x3dbc6a08	0.09199911
240	0x3ce4a3de	0.02791017
241	0x3e426124	0.18982369
242	0xbdcc6e00	-0.09981918
243	0x3d2eafd2	0.042648144
244	0x3d945344	0.07242444
245	0xbd13b0d5	-0.036057312
246	0x3e879bbc	0.26486003
247	0xbe45b764	-0.19308239
248	0xbd25738c	-0.040393397
249	0x3c3a7dff	0.011382579
250	0x3d972ae5	0.07381228
251	0x3dc04147	0.09387451
252	0x3e7448d5	0.23855908
253	0xbd4773a7	-0.04869428
254	0xbe8727d6	-0.2639758
255	0xbdc1200b	-0.0942994

fc.0.bias f4 [128]
0	0xbd451bc7	-0.048122194
1	0x3b35b215	0.0027724553
2	0xbdf0a607	-0.11750417
3	0xbd6ac7cf	-0.05731946
4	0xbd38fcd4	-0.04516299
5	0xbd88513d	-0.0665612
6	0x3db2def8	0.08733934
7	0x3da1381a	0.07872029
8	0xbe54d7b9	-0.20785417
9	0x3e064cbc	0.1311521
10	0xbdbe428d	-0.09290037
11	0xbca856a5	-0.020549128
12	0xbd9a40cf	-0.075318925
13	0xbcd8272c	-0.026385866
14	0x3c01818d	0.0079044225
15	0xbbd046f7	-0.006356116
16	0x3dbb7e1b	0.09154912
17	0xbd0b399a	-0.03399048
18	0xbd4a0b1a	-0.049326994
19	0x3cbbda1f	0.022931157
20	0xbe3785be	-0.17922112
21	0x3d4ba0c8	0.04971388
22	0x3e093d23	0.13402228
23	0x3d0e85fd	0.03479575
24	0x3d596788	0.05307725
25	0x3e1f6632	0.15566328
26	0x3e134af7	0.14384066
27	0xbe163ac2	-0.14670852
28	0xbc5779d9	-0.013151609
29	0xbdaf1f08	-0.085508406
30	0x3e293160	0.16522741
31	0x3d1b6f8c	0.037948176
32	0xbdd68d87	-0.10476213
33	0x3d31651c	0.043309316
34	0x3cdb90ad	0.026802385
35	0xbe1d58e6	-0.15365943
36	0x3dc91765	0.09818915
37	0x3dc73803	0.0972748
38	0x3d24ac9c	0.040203676
39	0x3d50eed2	0.051009007
40	0x3d89ce0d	0.06728754
41	0x3e1f99e3	0.15586047
42	0x3e63f502	0.22261432
43	0x3d00b9d1	0.03142721
44	0xbc889ce5	-0.016676376
45	0xbda69f93	-0.08135905
46	0x3d99b56c	0.075053066
47	0xbd724321	-0.05914605
48	0xbe0f9c0b	-0.1402437
49	0x3d453d09	0.04815391
50	0x3d75afad	0.05998199
51	0xbd99579e	-0.07487415
52	0x3d8af38f	0.06784736
53	0x3d8ea1d5	0.06964461
54	0x3d2cdefc	0.042204842
55	0x3d99d19c	0.07510683
56	0xbde08acf	-0.10963976
57	0xbda802fa	-0.08203693
58	0x3d44aa1f	0.048013803
59	0xbdd508c3	-0.10402062
60	0xbe4f1641	-0.20223333
61	0x3d4188cd	0.047249604
62	0x3d931238	0.07181209
63	0xbd289e5d	-0.041166652
64	0x3e5d87d2	0.21633843
65	0x3d985131	0.07437361
66	0xbc38aca8	-0.011271633
67	0xbcba138e	-0.022714403
68	0xbe5764b2	-0.21034506
69	0xbd929a9d	-0.071583964
70	0x3d48422e	0.04889124
71	0xbd030086	-0.03198292
72	0x3d39b6cd	0.045340348
73	0xbdfe12a2	-0.12405898
74	0xbdabb83a	-0.08384748
75	0xbcd11179	-0.025521027
76	0x3e12e378	0.14344585
77	0xbe0b1b71	-0.13584687
78	0x3d6af909	0.057366405
79	0x3dcd3964	0.10020712
80	0xbc928bac	-0.017888866
81	0x3d3427ed	0.04398339
82	0x3d775609	0.060384784
83	0xbd03b075	-0.032150704
84	0x3cb7dce0	0.022444189
85	0x3e1a0eab	0.15044658
86	0x3e1d8982	0.15384486
87	0x3cec21d4	0.028824724
88	0x3d526866	0.051369093
89	0x3cefb8a2	0.029262844
90	0x3e2c550a	0.16829315
91	0xbc189c69	-0.009314635
92	0xbd9e771c	-0.07737562
93	0xbded9a80	-0.11601734
94	0x3b9672ca	0.0045913206
95	0x3cfec025	0.031097481
96	0xbda6e4fb	-0.08149143
97	0xbe2cd7df	-0.16879223
98	0xbd75a06b	-0.05996744
99	0x3df81d49	0.12114961
100	0xbda358c2	-0.079759136
101	0xbe102586	-0.14076814
102	0x3d86d3ca	0.06583364
103	0x3e5269c9	0.20548166
104	0xbe777e5f	-0.241693
105	0xbe35774b	-0.17721288
106	0xbcdea651	-0.027178915
107	0x3dbdc355	0.09265772
108	0xbdd57dfc	-0.1042442
109	0xbbd09da0	-0.0063664466
110	0x3dd7319d	0.1050751
111	0xbdd289fb	-0.10280224
112	0xbe21c770	-0.15798736
113	0xbd66b604	-0.056325927
114	0x3cb95f4a	0.022628445
115	0x3e35720a	0.17719284
116	0x3dcbdaa8	0.09953815
117	0x3e025566	0.1272789
118	0x3e02993e	0.1275377
119	0xbdb6c532	-0.08924331
120	0xbd6d1d76	-0.057889424
121	0x3d676736	0.056494914
122	0xbdc867c4	-0.09785417
123	0xbe08800c	-0.13330096
124	0x3c8857a7	0.016643358
125	0x3ddbdba3	0.10735252
126	0x3e326fa9	0.17425407
127	0xbd5c115a	-0.053727485

fc.1.weight f4 [64, 128]
0	0xbde93176	-0.11386387
1	0xbdd97afb	-0.1061916
2	0xbde66783	-0.11250212
3	0x3cac551c	0.021036677
4	0x3d7782fb	0.060427647
5	0x3cd62280	0.026139498
6	0x3aaefc96	0.0013350423
7	0x3a75ec34	0.00093812053
8	0x3d6049f7	0.05475804
9	0x3c8aab6f	0.016927449
10	0x3cb73315	0.022363225
11	0x3cc3ed90	0.02391699
12	0xba8046c0	-0.000978671
13	0xbd932503	-0.07184794
14	0xbda9bc80	-0.08287907
15	0xbb09881e	-0.0020985673
16	0xbce82717	-0.028338952
17	0xbdd9cfec	-0.10635361
18	0xbdbd822f	-0.09253346
19	0xbd9bf913	-0.076158665
20	0x3d2dfefd	0.042479504
21	0x3d0aa711	0.033850733
22	0xbd86dd50	-0.06585181
23	0xbc94df9c	-0.018173032
24	0xbd8d3f96	-0.06896894
25	0x3d85d540	0.06534815
26	0xbdbad7f5	-0.09123222
27	0xbd840f96	-0.06448285
28	0xbdfa8a87	-0.12233453
29	0x3d2d3749	0.042289052
30	0xbd86dc80	-0.06585026
31	0x3ccc5b97	0.024946017
32	0x3cf4c2fc	0.029878132
33	0xbd842b09	-0.06453521
34	0xbd4f7419	-0.05064783
35	0xbd6c2878	-0.05765578
36	0xbc213c54	-0.0098410435
37	0xbd93339a	-0.071875766
38	0x3c9be7d4	0.019031443
39	0xbad1a6d2	-0.0015995151
40	0xbdd40913	-0.10353293
41	0xbd9d6670	-0.07685554
42	0xbddab43e	-0.1067891
43	0x3c5b56ad	0.013387364
44	0xbcd12604	-0.025530823
45	0xbca02f7a	-0.019553889
46	0xbda6ca05	-0.08144001
47	0xbdd703f7	-0.10498803
48	0xbd269c14	-0.04067619
49	0xbde12519	-0.10993404
50	0xbdb9a1d5	-0.0906407
51	0xbdc96092	-0.098328725
52	0xbdb323a2	-0.08747031
53	0xbdaff9ec	-0.08592591
54	0xbcb8a467	-0.02253933
55	0xbcb2a399	-0.021806525
56	0x3d11ed18	0.0356265
57	0xbde21d5a	-0.110407546
58	0x3d5fdeba	0.054655768
59	0x3cd5b6b5	0.026088098
60	0x3d43df4b	0.04782037
61	0xbd868022	-0.06567408
62	0x3d0757d4	0.033042744
63	0xbda9c4ec	-0.08289513
64	0x3b907182	0.0044080624
65	0x3d468e16	0.048475347
66	0x3c4ad096	0.012378832
67	0xbda95e0f	-0.082698934
68	0xbd23bd65	-0.039975543
69	0xbd791e67	-0.06082001
70	0x3c19e8c1	0.009393872
71	0xbd9d9934	-0.07695237
72	0xbc331571	-0.010930405
73	0xbcc19281	-0.023629429
74	0xbd504326	-0.050845288
75	0xbd172745	-0.036902685
76	0xbdb52e9e	-0.08846782
77	0xbdca2c56	-0.09871738
78	0x3cd27b2a	0.025693495
79	0x3d0de8c3	0.034645807
80	0xbd1325dd	-0.03592478
81	0x3cd7bb28	0.02633436
82	0x3d25be1b	0.0404645
83	0xbdef90d8	-0.11697549
84	0xbd7e62f2	-0.06210608
85	0xbd4f3e14	-0.05059631
86	0xbb9873f7	-0.004652496
87	0xbbfdceb5	-0.0077455887
88	0xbc469880	-0.01212132
89	0x3d3bf98a	0.045892276
90	0xbd33b095	-0.043869574
91	0xbd83a478	-0.06427854
92	0xbdcbdaa2	-0.0995381
93	0xbd382dfb	-0.044965725
94	0x3d471667	0.04860535
95	0xbd300510	-0.042973578
96	0xbd843c60	-0.06456828
97	0x3cdb6707	0.026782526
98	0xbdbaedf0	-0.09127414
99	0xbd6feff0	-0.05857843
100	0x3dadea6c	0.08491978
101	0xbd996350	-0.074896455
102	0xbdb69ef4	-0.08917037
103	0xbc2fe606	-0.010735994
104	0xbd14eb23	-0.036357056
105	0x3c628323	0.013825211
106	0x3cac34c1	0.021021249
107	0xbdb5ac31	-0.088707335
108	0x3d064692	0.032782145
109	0xbdbaebb8	-0.09126991
110	0xbcbaf3a4	-0.022821255
111	0xbd244190	-0.040101588
112	0xbd5dcfc1	-0.054153208
113	0x3d219790	0.039451182
114	0xbdae903e	-0.08523606
115	0xbd0d4536	-0.034489833
116	0x3cf92201	0.030411722
117	0x3d2213a3	0.03956951
118	0xbd990958	-0.07472485
119	0x3c2e7ab0	0.010649368
120	0x3d594cfd	0.053051937
121	0xbde637e8	-0.11241132
122	0xbbd6158a	-0.0065333294
123	0xbd706878	-0.05869338
124	0xbc2be6c3	-0.01049203
125	0xbdc2cad5	-0.095113434
126	0x3cf529c6	0.029927146
127	0xbca0a0f4	-0.019607998
128	0x3cbf1399	0.023324775
129	0x3e5abe22	0.21361592
130	0xbe7528dc	-0.23941368
131	0xbd351316	-0.044207655
132	0x3d5e8a84	0.054331318
133	0xbe5d4b5c	-0.21610779
134	0xbd54d253	-0.051958393
135	0xbe5eb28f	-0.21747802
136	0x3e2b9540	0.16756153
137	0xbe35f0da	-0.17767659
138	0xbe0620f4	-0.13098508
139	0xbe1f58a4	-0.15561157
140	0x3d25a58d	0.040441085
141	0xbcab3d5b	-0.02090328
142	0xbdfa8870	-0.12233055
143	0xbe0b60a4	-0.13611084
144	0xbc9f0e22	-0.019415919
145	0x3e11e463	0.14247279
146	0x3deb9d1c	0.115045756
147	0xbcb8675a	-0.02251022
148	0x3dfc1601	0.123088844
149	0xbe638793	-0.22219686
150	0xbd5a83ae	-0.053348236
151	0xbec642e4	-0.38722908
152	0x3d031441	0.032001738
153	0xbd27a743	-0.040930998
154	0x3d46e457	0.048557606
155	0xbde8c493	-0.113656186
156	0xbcf110c4	-0.02942694
157	0xbea4db85	-0.3219873
158	0xbe4be286	-0.1991063
159	0x3dcb2896	0.099198505
160	0x3e1f7d98	0.15575254
161	0x3e11dae4	0.14243656
162	0xbe888480	-0.2666359
163	0xbe88c220	-0.26710606
164	0xbd3aaaae	-0.04557293
165	0x3da02f92	0.07821573
166	0xbdc2651a	-0.0949194
167	0x3deeecc1	0.11666251
168	0xbd738344	-0.059451357
169	0xbc92ce21	-0.017920556
170	0x3cf6d4be	0.03013074
171	0xbe05dea5	-0.13073213
172	0x3e2d13ed	0.16902132
173	0xbe835759	-0.25652578
174	0x3d52fe74	0.051512197
175	0x3df6ec85	0.12056831
176	0xbdd25159	-0.10269422
177	0x3e34ca35	0.17655261
178	0x3dde6e57	0.108608894
179	0x3c4c3406	0.012463575
180	0x3d8c8fb7	0.06863349
181	0xbe5d7840	-0.21627903
182	0xbdf70417	-0.12061327
183	0x3e089842	0.13339332
184	0x3d20ac44	0.039226785
185	0xbdce82a5	-0.10083512
186	0xbe5d931c	-0.21638149
187	0xbdfb214c	-0.1226221
188	0x3da78b55	0.08180872
189	0xbe0666b6	-0.13125119
190	0x3dc12ab1	0.09431971
191	0xbd86ef26	-0.06588583
192	0xbeaa24c6	-0.3323118
193	0x3d539b9b	0.05166207
194	0x3df76537	0.12079852
195	0x3ee035bf	0.43791005
196	0xbda7f943	-0.0820184
197	0x3d5e641f	0.0542947
198	0x3cea3eb8	0.02859436
199	0xbd50869d	-0.050909627
200	0x3df69e29	0.120418854
201	0x3dde98ec	0.10869011
202	0xbdbe4510	-0.092905164
203	0x3d49b3a9	0.049243603
204	0xbcdf83ee	-0.027284589
205	0xbca4ce00	-0.02011776
206	0xbc06cbd9	-0.008227312
207	0x3db44a0e	0.08803187
208	0xbcc0e0f0	-0.023544759
209	0xbe74e5e3	-0.2391582
210	0xbe27af68	-0.16375506
211	0xbda6a9e2	-0.08137871
212	0xbe352cc6	-0.17692861
213	0x3d3c0c40	0.04591012
214	0x3deee7fc	0.11665341
215	0x3dfe7fec	0.12426743
216	0xbde822b6	-0.113347456
217	0x3ca941ed	0.020661319
218	0xbe5c7425	-0.2152868
219	0xbe3d03b2	-0.18458441
220	0xbd53f089	-0.051743064
221	0xbe734748	-0.2375766
222	0xbed7cfba	-0.4215067
223	0x3e178056	0.1479505
224	0xbe464efb	-0.19366066
225	0xbd865d43	-0.06560757
226	0xbe11a01f	-0.14221238
227	0xbdd566c5	-0.10419992
228	0x3d98c04f	0.07458555
229	0x3ded40b8	0.1158461
230	0xbd965bd2	-0.07341732
231	0xbd545c1a	-0.051845647
232	0xbda524c5	-0.08063654
233	0x3dd01067	0.101593785
234	0x3d268f82	0.040664203
235	0x3e338bb8	0.17533767
236	0xbe19453e	-0.1496782
237	0xbf14b5f6	-0.5809015
238	0x3e2504c0	0.16115093
239	0x3eac9e45	0.337145
240	0xbe053be1	-0.13011123
241	0x3e044ee7	0.12920724
242	0xbe0f5760	-0.13998175
243	0xbe4d5732	-0.20052794
244	0x3d34fb86	0.044185184
245	0xbd7d008e	-0.061768107
246	0xbdaaad72	-0.08333863
247	0x3df35933	0.11882248
248	0xbe1808e2	-0.14847139
249	0x3ddf9a6e	0.10918127
250	0xbdde7a0c	-0.10863122
251	0x3d65c199	0.056092832
252	0x3db05aeb	0.08611091
253	0x3d49dd4f	0.049283322
254	0x3cbff4ab	0.023432096
255	0xbd2514c5	-0.04030301

fc.1.bias f4 [64]
0	0xbdbe171d	-0.09281752
1	0xbdac338e	-0.08408271
2	0x3e6a3dc9	0.22875132
3	0x3c59c0ed	0.013290626
4	0x3c6ab3f9	0.014325135
5	0xbccba4b1	-0.024858804
6	0xbd951743	-0.072798274
7	0x3db20a8a	0.086934164
8	0xbda7a001	-0.08184815
9	0xbd8ca2e9	-0.0686701
10	0xbcb66ef1	-0.022269698
11	0x3e14ae13	0.14519529
12	0xbd9ab7aa	-0.075545624
13	0xbdd53f55	-0.1041247
14	0xbccc82d1	-0.024964722
15	0x3da7a50b	0.08185776
16	0x3db2b468	0.08725816
17	0x3dff1523	0.124552034
18	0xbdf907bd	-0.12159679
19	0x3d889d77	0.06670659
20	0x3e47a9b9	0.19498338
21	0x3d20dc37	0.039272513
22	0xbcbdc0eb	-0.02316328
23	0x3dd188bd	0.10231159
24	0xbd0bd003	-0.034133922
25	0x3d928abe	0.07155369
26	0x3e5dfca0	0.216784
27	0x3c9a869f	0.01886302
28	0x3dff5e01	0.12469102
29	0xbdbfce4a	-0.093655184
30	0x3d005b0d	0.031336833
31	0x3e089dfe	0.13341519
32	0xbdc4e340	-0.09613657
33	0x3e552367	0.20814286
34	0x3d2bc845	0.04193904
35	0xbdc5d8a4	-0.096604615
36	0xbd89ab26	-0.06722097
37	0xbd9ca8ca	-0.076493815
38	0x3d3f9c84	0.046780124
39	0xbd35aaec	-0.044352457
40	0x3d7520b0	0.059845626
41	0x3d486714	0.048926428
42	0xbcb61e82	-0.022231344
43	0xbdc2aa7b	-0.09505173
44	0x3e508b43	0.20365624
45	0x3dce1878	0.10063261
46	0xbd58d4ab	-0.05293719
47	0xb8b47461	-8.604746e-05
48	0x3c05c6cb	0.008165072
49	0x3de99dac	0.11407027
50	0x3e05974f	0.13046001
51	0xbda9e8b7	-0.0829634
52	0xbdaa14e5	-0.083047666
53	0xbc15c280	-0.009140611
54	0x3ccba871	0.024860593
55	0x3e2e955e	0.17049167
56	0x3c078f31	0.008273886
57	0x3d572ec1	0.052534822
58	0x3c85c44e	0.016328957
59	0xbd736c28	-0.059429318
60	0xbc85ef53	-0.01634947
61	0xbd6b73e9	-0.057483587
62	0xbe024712	-0.12722424
63	0x3e1f60b2	0.1556423

fc.2.weight f4 [16, 64]
0	0x3d0c068a	0.034185924
1	0x3eb722ae	0.35768646
2	0x3d469934	0.04848595
3	0xbe476b25	-0.19474466
4	0xbd87ce51	-0.066311486
5	0xbe916388	-0.2839625
6	0x3e9d3367	0.3070328
7	0xbf000ee1	-0.50022703
8	0x3ba49a20	0.005023256
9	0xbececb5d	-0.4038953
10	0x3e50f2ca	0.20405117
11	0x3df7581c	0.120773524
12	0x3e7c57c0	0.24642849
13	0x3e254765	0.16140516
14	0xbe1a31b2	-0.1505802
15	0xbe4d8670	-0.20070815
16	0xbe95affc	-0.29235828
17	0x3cd4f157	0.025993986
18	0x3dbd543c	0.09244582
19	0x3cc88874	0.024479128
20	0xbd93a6fc	-0.07209584
21	0x3e0059b2	0.12534216
22	0xbd925dc6	-0.07146792
23	0xbde57286	-0.11203484
24	0x3df11268	0.11771089
25	0xbef04e58	-0.46934772
26	0x3e008600	0.12551117
27	0x3e82be9d	0.2553605
28	0x3b279805	0.0025572788
29	0xbeaa1222	-0.3321696
30	0xbda44463	-0.08020856
31	0x3d584444	0.05279948
32	0x3e889eef	0.26683757
33	0x3da22d17	0.079187565
34	0x3ed693fb	0.41909775
35	0xbe527462	-0.20552209
36	0xbe9ef562	-0.31046587
37	0x3d938934	0.07203904
38	0x3e5cc7b9	0.21560563
39	0x3ef669b0	0.48127508
40	0x3de51f5b	0.11187621
41	0x3ce0a22f	0.027421085
42	0xbeb694a1	-0.3566027
43	0x3e30ae5f	0.17254017
44	0x3b830ca7	0.003999311
45	0xbe2b1e83	-0.16710858
46	0x3dcd35a3	0.10019996
47	0x3c6ed3a2	0.014576824
48	0x3e580d41	0.21098806
49	0x3d1ad8f5	0.037804563
50	0xbc9451f7	-0.01810549
51	0xbeac49b7	-0.3364999
52	0xbe61432f	-0.21998285
53	0x3dfcdc0b	0.12346657
54	0xbe2076cc	-0.15670317
55	0x3d26bc69	0.040707026
56	0xbe499722	-0.19686559
57	0x3dc9a935	0.09846727
58	0x3d55b477	0.052174058
59	0x3ed55d79	0.41672876
60	0x3dab147b	0.08353516
61	0x3e68efbe	0.22747704
62	0x3d3113cc	0.04323177
63	0x3d297203	0.041368496
64	0x3c7ce4a6	0.015435373
65	0x3e32fce1	0.17479278
66	0x3d1fcc42	0.039013155
67	0xbede9e15	-0.43479982
68	0x3da9d174	0.08291903
69	0xbd8452d8	-0.06461114
70	0x3d6a3217	0.057176676
71	0xbf142288	-0.5786519
72	0x3d9e1494	0.07718769
73	0xbe9c5035	-0.30529943
74	0x3e287701	0.16451646
75	0x3d71d378	0.059039563
76	0x3e9ec8a5	0.31012455
77	0x3ea03876	0.31293076
78	0xbda93dd2	-0.082637444
79	0xbeea7dbe	-0.4579906
80	0xbe69b1d0	-0.22821736
81	0xbcfb5185	-0.03067852
82	0x3d9dcb91	0.07704843
83	0xbcda18d1	-0.026623162
84	0xbd2dbf6e	-0.04241889
85	0xbeb41ebb	-0.35179695
86	0xbe8d6fbe	-0.27624315
87	0xbe88a900	-0.26691437
88	0xbc529166	-0.0128520485
89	0xbf05b3cd	-0.5222748
90	0x3dd8c5f1	0.10584629
91	0xbe047f6e	-0.12939236
92	0x3dbadfd1	0.09124721
93	0xbf029e0c	-0.5102241
94	0xbe0411dc	-0.12897438
95	0x3d1caa5f	0.038248416
96	0xbd20d70c	-0.039267585
97	0xbdd8c425	-0.105842866
98	0xbe2a7598	-0.16646421
99	0xbd9360c8	-0.07196194
100	0xbe145284	-0.14484602
101	0x3dc5042f	0.096199386
102	0xbe4026cc	-0.187648
103	0xbe9d1ec2	-0.3068753
104	0x3d62d446	0.05537822
105	0xbd86b305	-0.06577114
106	0xbdf53d58	-0.11974591
107	0x3e35907e	0.177309
108	0x3e5151cb	0.20441358
109	0xbeed432b	-0.46340308
110	0x3c7dac67	0.015482998
111	0x3e2ede37	0.17076956
112	0xbe3d16a6	-0.18465671
113	0xbc3b03d4	-0.011414487
114	0x3d96b201	0.0735817
115	0xbea143dd	-0.31497088
116	0xbe269e97	-0.16271435
117	0xbcaed2d8	-0.021340773
118	0xbe7f11e2	-0.24909166
119	0xbd5cefbc	-0.053939566
120	0x3daadd43	0.083429836
121	0xbe556e2f	-0.20842813
122	0x3dd043c4	0.10169175
123	0x3e44d36c	0.19221276
124	0x3d7accce	0.061230473
125	0x3d76de9e	0.060270898
126	0x3ca7581a	0.020427752
127	0x3e09811c	0.13428158
128	0x3d280830	0.041023433
129	0xbdada479	-0.08478636
130	0xbcd85e11	-0.026412042
131	0x3d92b295	0.07162968
132	0x3dc06cc3	0.09395745
133	0x3d667fbb	0.056274157
134	0xbd728c52	-0.05921585
135	0x3dbdf18a	0.092745855
136	0x3c80a739	0.015704738
137	0xbd16dada	-0.036829807
138	0xbc37f669	-0.011228182
139	0x3d2f92eb	0.04286472
140	0xbdea0d93	-0.1142837
141	0xbd7955ae	-0.060872726
142	0x3dc91247	0.09817939
143	0xbd9ad30e	-0.07559787
144	0xbd741725	-0.059592385
145	0xbdca8729	-0.09889061
146	0x3ce1d746	0.02756847
147	0xbe137fb6	-0.14404187
148	0xbd3e9ed9	-0.046538208
149	0xbbe048a1	-0.0068445955
150	0xbc4f8b7c	-0.012667533
151	0xbd435a7f	-0.047693726
152	0x3dc6c4c7	0.09705501
153	0xbcab46f9	-0.020907866
154	0x3d76c05d	0.060242046
155	0x3cfe6960	0.031056106
156	0xbdf087d7	-0.117446594
157	0xbd06d4b1	-0.032917682
158	0x3db76aa2	0.089558855
159	0xbd106376	-0.035251103
160	0xbbdf4ab7	-0.0068143266
161	0xbdbd38c4	-0.09239343
162	0xbd0a8c99	-0.03382549
163	0xbe0ded98	-0.13860166
164	0x3c92c853	0.017917788
165	0x3db53004	0.08847049
166	0x3dc48b58	0.0959689
167	0x3dc11ae1	0.09428955
168	0x3d6f2ba3	0.058391225
169	0xbdaf31ac	-0.08554396
170	0xbdcfd061	-0.10147167
171	0xbd05d404	-0.032672897
172	0xbdae68d6	-0.085160896
173	0xbd2b9ddf	-0.041898604
174	0xbd86f755	-0.065901436
175	0xbe580d3c	-0.21098799
176	0xbd544d3d	-0.051831473
177	0x3c3172b4	0.01083057
178	0xbdc76d69	-0.09737665
179	0x3dd06908	0.10176283
180	0xbdc9c0b1	-0.09851206
181	0x3d9dfb69	0.07713968
182	0xbd6e5926	-0.058190487
183	0x3d366ab5	0.044535358
184	0xbd2a3c2d	-0.041561294
185	0x3dcdba12	0.10045256
186	0x3dd89cdc	0.105767936
187	0xbd9f86b8	-0.077893674
188	0xbd63e9a2	-0.05564273
189	0xbdff692b	-0.12471231
190	0x3c9b59f2	0.018963788
191	0xbe130ecf	-0.14361118
192	0xbc2e441e	-0.010636358
193	0xbe5d5ec3	-0.2161818
194	0x3e27b4a1	0.16377498
195	0x3e826fe2	0.25475985
196	0x3db04be5	0.08608226
197	0x3e2e3f4d	0.17016335
198	0xbebf3360	-0.37343884
199	0x3e8d9c16	0.27658147
200	0xbdb43508	-0.087991774
201	0x3ca8f01d	0.020622307
202	0xbe25d70b	-0.16195314
203	0x3e1dea9a	0.15421525
204	0xbe96c588	-0.2944758
205	0xbcfbf545	-0.030756602
206	0x3e223bf9	0.1584319
207	0x3dfbeefd	0.12301443
208	0x3c829860	0.015941799
209	0x3df4a391	0.1194526
210	0xbd362534	-0.044469073
211	0x3e0eae2b	0.13933627
212	0x3e5e3e67	0.21703492
213	0x3e016bd5	0.12638791
214	0x3d83df50	0.06439078
215	0x3d825012	0.063629285
216	0xbd8ba5f2	-0.06818761
217	0x3e08f8bb	0.13376133
218	0x3e5f674c	0.21816748
219	0x3d8534a2	0.065041795
220	0x3e00c66d	0.12575693
221	0xbe10e3fc	-0.14149469
222	0xbc325ca8	-0.010886349
223	0x3e36c1cf	0.1784737
224	0xbec5cb35	-0.38631597
225	0x3dee5eb3	0.11639156
226	0xbe99a5b2	-0.30009228
227	0x3d8d7137	0.0690636
228	0xbe587a2b	-0.21140353
229	0xbdc5822c	-0.09643969
230	0xbecb31e4	-0.396865
231	0xbe1be176	-0.15222725
232	0x3d810126	0.06299047
233	0xbe6c828f	-0.23096679
234	0x3e2cda85	0.16880234
235	0x3c050b71	0.008120404
236	0x3e471802	0.19442752
237	0x3e157c27	0.14598142
238	0xbc05faac	-0.008177441
239	0x3d8ede68	0.069760144
240	0xbdf04069	-0.11731035
241	0x3e1a2a7b	0.15055268
242	0x3e123968	0.14279711
243	0x3e691a06	0.22763833
244	0x3dd2e06c	0.10296711
245	0xbe3b2c52	-0.18278626
246	0x3e96a685	0.2942392
247	0x3e2c8c3e	0.16850373
248	0x3e33f766	0.17574844
249	0x3e17946f	0.14802717
250	0x3d895f91	0.06707681
251	0xbe901d06	-0.28147143
252	0x3bfd68a1	0.00773342
253	0xbd469cb2	-0.04848928
254	0xbd125711	-0.035727564
255	0x3e38d705	0.18050773

fc.2.bias f4 [16]
0	0xbdcc2f29	-0.099699326
1	0xbe104d38	-0.14091957
2	0x3d8fbb25	0.07018117
3	0x3ea2be20	0.3178568
4	0xbe132303	-0.14368825
5	0xbcfb2132	-0.030655477
6	0x3d6a8ff7	0.0572662
7	0xbbe98480	-0.007126391
8	0xbddfc741	-0.109266765
9	0x3d90605e	0.070496306
10	0xbd557ac1	-0.05211902
11	0x3e2bfa37	0.16794668
12	0x3e755aef	0.2396047
13	0x3de4dfa1	0.11175466
14	0x3cf9925d	0.0304653
15	0x3dc6ecd3	0.097131394

fc.3.weight f4 [4, 16]
0	0xbe8669f4	-0.2625271
1	0xbea88229	-0.32911804
2	0xbe1f6217	-0.15564762
3	0x3ea0744c	0.31338727
4	0xbe618f6b	-0.22027366
5	0xbf0da1d0	-0.5532503
6	0xbd1397a4	-0.036033288
7	0xbd8b231a	-0.067938045
8	0xbe1d0fba	-0.1533803
9	0x3d540177	0.05175921
10	0x3cd09bb0	0.025464863
11	0x3e88638f	0.26638457
12	0x3e2b1471	0.16707017
13	0x3e6796ba	0.22616091
14	0xbe203f27	-0.1564909
15	0x3e2d27e8	0.16909754
16	0xbe5699f7	-0.2095717
17	0xbcd89a51	-0.026440771
18	0x3d8ab022	0.06771876
19	0x3d417591	0.04723126
20	0xbd4ec09a	-0.050476648
21	0x3e2b47fd	0.1672668
22	0x3e8332d0	0.25624704
23	0xbe0115fd	-0.12606044
24	0x3e1378bc	0.14401525
25	0x3e10dced	0.14146776
26	0x3e48edd8	0.1962198
27	0x3eb4a45d	0.3528165
28	0x3e649037	0.22320639
29	0x3e97f712	0.29680687
30	0x3e29b28e	0.1657202
31	0x3dd2f323	0.10300281
32	0xbee8dee8	-0.45482564
33	0xbe47bb06	-0.19504938
34	0xbe127874	-0.14303762
35	0x3e9a0935	0.3008515
36	0xbd9808e8	-0.07423574
37	0x3db44580	0.088023186
38	0x3e06a7c7	0.1314994
39	0x3e9f5069	0.31116036
40	0xbe51f0fa	-0.20502082
41	0xbe1a21ab	-0.15051906
42	0x3d9e7213	0.07736602
43	0xbdbafbaa	-0.09130032
44	0x3e38cc3c	0.18046659
45	0x3e25aa53	0.16178255
46	0xbdbe6ab6	-0.09297697
47	0xbe20be6d	-0.15697642
48	0xbe770dec	-0.24126405
49	0xbe036fbd	-0.12835594
50	0x3e177c34	0.14793473
51	0x3e9452ed	0.28969517
52	0x3e23d62c	0.15999669
53	0x3dd712a8	0.10501605
54	0x3de1afd2	0.11019863
55	0xbea1eb60	-0.3162489
56	0x3e63b53f	0.22237109
57	0xbd644162	-0.055726416
58	0x3e8dd26c	0.27699602
59	0x3edef65c	0.43547332
60	0x3e0b81f6	0.13623795
61	0xbe17668b	-0.14785211
62	0xbbeea6c1	-0.007283062
63	0xbe45370c	-0.1925928

fc.3.bias f4 [4]
0	0x3d08f866	0.033440016
1	0x3e8fc3f1	0.2807918
2	0x3cfd402a	0.030914385
3	0x3ebff55b	0.3749188
