model1.pth (torch_old, 19584 bytes, 6 tensors)

fc.0.weight f4 [64, 37]
0	0x3d559174	0.052140668
1	0xbcf379de	-0.029721197
2	0xbdd701c0	-0.10498381
3	0xbe6df357	-0.23237358
4	0xbe4d2984	-0.20035368
5	0xbd505b40	-0.050868273
6	0xbc499cb9	-0.012305432
7	0x3e2bcc66	0.1677719
8	0x3de8dfc0	0.11370802
9	0x3dc94092	0.09826769
10	0x3e5e3de1	0.21703292
11	0xbeaa3968	-0.33246922
12	0xbec28a45	-0.37996116
13	0xbe81ff91	-0.25390294
14	0xbf10d253	-0.5657093
15	0x3df56c07	0.11983495
16	0x3cedcaea	0.029027421
17	0x3cc1bb18	0.023648784
18	0xbdcada74	-0.09904948
19	0x3c8e3f39	0.017364131
20	0x3e69d5f3	0.22835521
21	0xbe5157d4	-0.2044366
22	0xbd9f7802	-0.077865615
23	0x3d4f78cd	0.050652314
24	0xbecab74b	-0.39592966
25	0xbdd6eae8	-0.104940236
26	0x3dc8d088	0.09805399
27	0xbc1be8ca	-0.00951595
28	0xbd702ce3	-0.058636557
29	0xbbdcd3ba	-0.006739107
30	0xbeb066c0	-0.34453392
31	0x3eb96a6f	0.36214015
32	0xbdccbc07	-0.09996801
33	0xbd3212c8	-0.043474942
34	0x3e9ad69c	0.3024186
35	0xbd0ad154	-0.033891037
36	0x3c559cd1	0.013037876
37	0x3bb4affc	0.005514143
38	0x3e380c2f	0.17973398
39	0x3dab4de1	0.083644636
40	0x3e638458	0.22218454
41	0x3e1e1877	0.1543902
42	0x3e384f3c	0.17998976
43	0xbdef7193	-0.116915844
44	0xbea4bcab	-0.32175192
45	0xbe183966	-0.14865646
46	0xbe9d507d	-0.3072547
47	0xbd7c30bc	-0.061569914
48	0x3d66d104	0.056351677
49	0x3e098a2d	0.13431616
50	0x3e5c2f2b	0.21502368
51	0x3e926742	0.28594404
52	0x3e102aa0	0.1407876
53	0x3c8ca59e	0.017168816
54	0x3d8aca13	0.06776824
55	0xbca345fd	-0.019930834
56	0x3df89fca	0.12139852
57	0xbd5cfb9e	-0.0539509
58	0x3c30a27f	0.01078093
59	0xbdb22572	-0.086985484
60	0xbdf64fec	-0.12026963
61	0x3d5fe061	0.054657344
62	0x3e4b2e43	0.19841866
63	0xbdae4fe9	-0.085113354
64	0xbe25733c	-0.1615724
65	0xbd778d1a	-0.0604373
66	0xbe311f05	-0.1729699
67	0x3ec0aa03	0.3762971
68	0xbe7fd4e3	-0.24983554
69	0xbd187ccd	-0.037228394
70	0xbe78b9a7	-0.24289571
71	0xbf270893	-0.6524746
72	0x3cc5f9e7	0.024167014
73	0x3c898ccb	0.016790768
74	0x3db644e5	0.08899859
75	0xbd42b34e	-0.04753428
76	0x3e0b7537	0.13618933
77	0x3d344cc3	0.04401852
78	0x3dab5afb	0.083669625
79	0xbe40c107	-0.18823634
80	0xbdb00e39	-0.08596463
81	0x3e4d08cc	0.20022887
82	0x3dd41de9	0.103572674
83	0xbec76d94	-0.3895079
84	0xbe0a5705	-0.13509758
85	0xbe88940e	-0.26675457
86	0x3e672999	0.22574462
87	0xbbcfb930	-0.0063392147
88	0x3d4da6f5	0.05020805
89	0xbe747411	-0.23872401
90	0x3ca2e6fe	0.019885536
91	0x3e37457d	0.17897601
92	0x3e312750	0.17300153
93	0xbb251210	-0.0025187768
94	0xbec67c4f	-0.38766715
95	0xbdec955c	-0.115519255
96	0x3e9438ca	0.28949577
97	0xbcbcd908	-0.023052707
98	0xbe8a5431	-0.27017358
99	0xbe2cb8da	-0.1686739
100	0x3eb5ffdf	0.35546777
101	0xbc6e3e21	-0.01454118
102	0xbcbbda1a	-0.022931147
103	0x3e2ff5c7	0.171836
104	0xbe80f9fe	-0.2519073
105	0x3de22e58	0.110439956
106	0xbd98cccb	-0.07460936
107	0xbe2accae	-0.16679642
108	0xbe76fa11	-0.2411883
109	0xbcb86d25	-0.022512982
110	0xbd041f84	-0.03225662
111	0x3db83ce8	0.08995992
112	0x3d9fa907	0.07795911
113	0x3e835b46	0.25655574
114	0x3dc970d0	0.098359704
115	0xbe7e8f45	-0.2485934
116	0x3e9324c8	0.28739
117	0xbf129cf0	-0.5727072
118	0xbe782678	-0.24233425
119	0xbe2e5469	-0.17024387
120	0xbfabe3c1	-1.342888
121	0x3d9129c5	0.07088045
122	0x3c7f0965	0.015566205
123	0x3e31cb8c	0.17362803
124	0xbe56acd1	-0.20964362
125	0xbd3fe6ef	-0.046851095
126	0xbd5d3c04	-0.054012313
127	0xbdcf06f9	-0.10108752
128	0x3e2500ed	0.16113634
129	0xbd9c80d7	-0.07641762
130	0xbe2d24a3	-0.16908507
131	0x3c953add	0.018216545
132	0x3cdd378c	0.027004026
133	0x3e260fa3	0.16216902
134	0x3e2b8220	0.16748857
135	0x3dc0986d	0.09404073
136	0x3ce4749e	0.027887639
137	0x3da6583e	0.081222996
138	0x3e743748	0.23849213
139	0x3e22ca93	0.15897588
140	0x3e42aa80	0.19010353
141	0x3e834ddc	0.2564534
142	0x3e4531e6	0.19257316
143	0x3cb5c4b8	0.02218853
144	0xbd8633f6	-0.065528795
145	0xbf0ead49	-0.5573316
146	0x3d774216	0.06036576
147	0x3c7b727e	0.015347121
148	0xbdb7aba6	-0.08968286
149	0x3cc4afc7	0.024009598
150	0xbe5424a7	-0.20717107
151	0xbe8cf58c	-0.27531087
152	0x3d9e5843	0.07731678
153	0xbc7594aa	-0.014989058
154	0x3e4ef429	0.20210327
155	0xbe24203a	-0.16027918
156	0x3e2f2cdb	0.17106955
157	0x3f0c281d	0.5474871
158	0xbd5c3a58	-0.05376658
159	0xbe06e615	-0.13173707
160	0x3d929a24	0.07158306
161	0xbd6ca0d3	-0.05777056
162	0xbe197540	-0.14986134
163	0xbe6f8b62	-0.23393014
164	0x3d6da942	0.058022745
165	0x3e21dc75	0.15806754
166	0xbeafc503	-0.34329996
167	0x3e569223	0.20954184
168	0xbe06d679	-0.13167752
169	0x3d872a38	0.065998495
170	0x3dc4a93d	0.09602592
171	0xbdd90e32	-0.10598411
172	0x3e55dfc2	0.20886138
173	0x3d513a82	0.051081188
174	0xbe47eaee	-0.19523212
175	0x3de00936	0.10939257
176	0x3afb5131	0.0019173977
177	0x3e2a483b	0.16629116
178	0x3e490f5b	0.19634764
179	0xbe8189e1	-0.25300506
180	0xbe08b3c0	-0.13349819
181	0x3e3081a3	0.17236952
182	0x3d3ab889	0.045586143
183	0x3da241c9	0.07922704
184	0x3c5df3fb	0.013546939
185	0x3d7d5d8a	0.061856784
186	0x3d333ac9	0.043757234
187	0xbd58acb7	-0.05289909
188	0xbdaf0188	-0.08545214
189	0x3df2c28e	0.118535146
190	0x3e5c036c	0.2148568
191	0xbec6d76b	-0.38836226
192	0xbe1ef05a	-0.15521374
193	0xbeca52f6	-0.3951642
194	0xbfddbb4c	-1.7322783
195	0xbe70d4ec	-0.23518723
196	0xbc3ddf53	-0.011588889
197	0x3df410b2	0.11917247
198	0xbd5f26d7	-0.0544804
199	0x3d2c53eb	0.042072218
200	0xbd9def1f	-0.07711624
201	0x3e691d24	0.22765023
202	0xbdbeacd3	-0.09310307
203	0xbc56adf7	-0.013103
204	0xbdda5620	-0.10660958
205	0xbc41f647	-0.011838502
206	0x3d7faa13	0.062418055
207	0x3e2e9819	0.17050208
208	0xbdecdc29	-0.1156543
209	0xbb506d97	-0.0031803602
210	0xbd412402	-0.04715348
211	0x3df5095c	0.11964676
212	0x3a43f4fa	0.0007475164
213	0x3d3178b5	0.043328006
214	0x3d086e68	0.033308417
215	0xbd62f7bf	-0.05541205
216	0xbde44bff	-0.111473076
217	0x3d7e04f0	0.062016428
218	0x3e110681	0.14162637
219	0xbe71c941	-0.23611929
220	0xbdaa81f8	-0.08325571
221	0x3e0ab657	0.1354612
222	0x3da2d6cd	0.07951126
223	0x3d74cfae	0.05976837
224	0xbe16c7f7	-0.14724718
225	0x3e3c6aaa	0.18400064
226	0x3c94feea	0.018187959
227	0xbdbdb189	-0.09262378
228	0xbe3ae9a9	-0.18253197
229	0x3eb6312c	0.3558439
230	0xbdadf59a	-0.084941104
231	0x3e51f377	0.2050303
232	0xbd0fde84	-0.035124317
233	0x3e08d376	0.13361916
234	0x3e1b617f	0.1517391
235	0x3d54c4e6	0.05194559
236	0x3e10c95a	0.1413931
237	0x3c972610	0.018450767
238	0xbe85bc8d	-0.26120415
239	0x3dae09a1	0.0849793
240	0x3e2e0907	0.16995631
241	0x3e8c5d8c	0.2741512
242	0xbe806ed0	-0.25084543
243	0x3df8a7a4	0.1214135
244	0x3ddf5a48	0.10905892
245	0x3d91e62c	0.0712398
246	0x3ed4aebc	0.41539562
247	0xbdd392ae	-0.10330711
248	0xbe0d9150	-0.13824964
249	0x3cebd72c	0.028789125
250	0x3dc7fc6b	0.09764942
251	0x3e9fd141	0.31214336
252	0x3e08eacc	0.13370818
253	0xbd68c6fc	-0.05683039
254	0xbd0aa136	-0.03384515
255	0x3dc4f32e	0.09616695

fc.0.bias f4 [64]
0	0x3da76249	0.08173043
1	0x3cc2061e	0.023684558
2	0xbdb5a711	-0.08869756
3	0x3de3a515	0.11115471
4	0x3ded22e5	0.11578921
5	0x3b269043	0.0025415577
6	0xbd58f555	-0.05296834
7	0x3d5d6e28	0.05406013
8	0xbc8f984c	-0.017528675
9	0xbe054819	-0.13015784
10	0x3da4fa42	0.080555454
11	0x3e110bda	0.14164677
12	0x3e020692	0.12697819
13	0x3dc3f374	0.095679194
14	0xbd70dc62	-0.058803923
15	0xbda7244b	-0.08161219
16	0x3d0632cd	0.03276329
17	0xbc29aa50	-0.010355547
18	0xbce63d46	-0.02810539
19	0xbe36a2ea	-0.17835584
20	0xbce827de	-0.028339323
21	0x3d26dad3	0.04073603
22	0xbb58dc1f	-0.0033090187
23	0xbd20078c	-0.039069697
24	0xbe39a37b	-0.18128769
25	0x3e796ab7	0.24357115
26	0x3ca4f784	0.020137556
27	0xbe19765c	-0.14986557
28	0x3e17b099	0.1481346
29	0x3db75112	0.0895101
30	0x3cd70dd1	0.026251705
31	0xbdb388ba	-0.08766313
32	0x3e49895d	0.19681306
33	0x3c013b30	0.007887647
34	0xbd8b0c50	-0.06789458
35	0x3dc59066	0.096466824
36	0xbdb5df89	-0.088805266
37	0x3d9fbf91	0.0780021
38	0xbd7a61ec	-0.06112854
39	0xbe10e870	-0.14151168
40	0xbd506362	-0.05087603
41	0xbca406c8	-0.020022765
42	0xbd5bc734	-0.05365677
43	0x3e5a25b4	0.21303445
44	0xbb965921	-0.0045882617
45	0xbdd986c6	-0.10621409
46	0x3d899a6d	0.067189075
47	0xbdef50ff	-0.11685371
48	0xbde41085	-0.11135963
49	0x3d1ae6e6	0.03781786
50	0xbe1f75dd	-0.15572305
51	0x3c8b8d5d	0.01703518
52	0xbdad8035	-0.08471719
53	0x3d9f9414	0.077919155
54	0xbe077958	-0.13229883
55	0x3bc30d4f	0.0059525142
56	0x3e268a7c	0.16263765
57	0xbbc81e88	-0.0061071552
58	0xbe18f8e9	-0.14938702
59	0xbdf18a7e	-0.117939934
60	0xbcf45f8e	-0.02983072
61	0x3d2063b2	0.039157577
62	0x3d658794	0.0560375
63	0x3dbd8ada	0.092549995

fc.1.weight f4 [32, 64]
0	0x3def6f70	0.11691177
1	0x3ddcc628	0.10779983
2	0x3e28ae0c	0.16472644
3	0x3e63cfb9	0.22247209
4	0xbc17059a	-0.009217644
5	0x3d06bff3	0.0328979
6	0xbd824486	-0.06360726
7	0xbca9c40b	-0.020723363
8	0xbe2c88a9	-0.16849007
9	0x3e5f5597	0.21809994
10	0xbdea1fb0	-0.11431825
11	0xbccf78ae	-0.0253261
12	0xbea0d566	-0.3141281
13	0x3e07b8cc	0.13254088
14	0xbe00a983	-0.12564664
15	0xbe8f4999	-0.27985838
16	0xbed6bd8e	-0.41941494
17	0xbe32b852	-0.17453125
18	0xbd7bcdd0	-0.061475575
19	0xbeefbdd0	-0.46824503
20	0xbdd32e5d	-0.103115775
21	0xbe9498ff	-0.29022977
22	0x3dcf561e	0.101238474
23	0xbe935e5e	-0.28782934
24	0xbe060081	-0.1308613
25	0xbdd4a55e	-0.10383104
26	0x3ea823d6	0.3283984
27	0x3e565453	0.20930605
28	0x3db6b10f	0.0892049
29	0x3d70d719	0.058798883
30	0xbe4d52a5	-0.20051058
31	0x3dd2deb3	0.10296383
32	0xbd2493e2	-0.040180095
33	0x3cd2bbd7	0.025724335
34	0x3d3b15fa	0.045675255
35	0xbda549f3	-0.08070745
36	0xbe06ce39	-0.13164605
37	0x3e20f3e0	0.15718031
38	0x3e6d1605	0.23152931
39	0xbe55ecb1	-0.20891072
40	0xbd7202d9	-0.059084747
41	0xbde9aeec	-0.11410317
42	0x3e05a774	0.1305216
43	0x3e439d21	0.19102909
44	0x3dec5922	0.11540438
45	0xbe8366a0	-0.25664234
46	0xbe8b624d	-0.27223435
47	0x3e217f56	0.15771231
48	0xbe8f4acd	-0.27986756
49	0xbd15faa9	-0.036616
50	0xbdfce34b	-0.1234804
51	0xbe781488	-0.24226582
52	0xbe571c1f	-0.21006821
53	0xbd85d814	-0.06535354
54	0xbe1ed58d	-0.1551115
55	0xbe7cb544	-0.24678522
56	0x3bddef79	0.006772932
57	0x3e588f5e	0.2114844
58	0xbe0877aa	-0.13326898
59	0xbd3d8d3b	-0.046277266
60	0x3d5a7cee	0.0533418
61	0x3e3e17a9	0.18563713
62	0xbe7fdd2b	-0.24986713
63	0xbcc1f4ac	-0.023676239
64	0xbc16c37b	-0.00920188
65	0x3e08fc6e	0.13377544
66	0xbcefa655	-0.029254118
67	0x3e40f18a	0.1884214
68	0x3d7ab4a8	0.061207443
69	0x3dfc9718	0.12333506
70	0xbeaf62b9	-0.34255007
71	0x3eb03bd5	0.34420648
72	0x3d9a6025	0.07537869
73	0xbdb2e404	-0.08734897
74	0xbc94ed2a	-0.018179495
75	0x3d6c7f13	0.057738375
76	0xbed0e29d	-0.40797892
77	0x3dea6677	0.11445325
78	0xbe39c673	-0.18142109
79	0x3e2f1636	0.17098317
80	0x3e5d84c7	0.21632682
81	0x3d4baa0a	0.04972271
82	0xbe89b22e	-0.26893753
83	0xbc22ca3b	-0.009935911
84	0x3d256168	0.040376097
85	0x3d2861e2	0.041108973
86	0xbdf05c68	-0.11736375
87	0xbcce8d5d	-0.025213892
88	0xbd7638b0	-0.060112655
89	0x3e335837	0.1751412
90	0x3d7a3020	0.06108105
91	0xbe2bb360	-0.16767645
92	0xbc19550f	-0.009358658
93	0x3d5a6f26	0.053328656
94	0x3df73627	0.120708756
95	0xbe2fc26f	-0.17164014
96	0xbdcd4db5	-0.10024587
97	0x3dfec1cc	0.124393076
98	0xbc89ea1f	-0.01683527
99	0xbe0f477b	-0.13992111
100	0xbe1559c1	-0.1458502
101	0x3d99ba5f	0.075062506
102	0x3e0b5875	0.13607962
103	0xbeaee300	-0.34157562
104	0x3d5e3f9b	0.054259878
105	0xbb894d9b	-0.0041901595
106	0xbdbf2f21	-0.09335161
107	0xbd8dd5f1	-0.06925572
108	0xbd594fc1	-0.053054575
109	0xbe7701ed	-0.24121828
110	0xbe1e4be2	-0.15458634
111	0xbd8b9721	-0.06815935
112	0xbe1ff9f8	-0.156227
113	0xbe1a8368	-0.1508919
114	0x3d5bd83c	0.053673014
115	0x3d155542	0.03645826
116	0x3cabd1c9	0.020974057
117	0x3e2b0509	0.1670114
118	0xbeb7ce7b	-0.3589972
119	0x3b60fe94	0.0034331428
120	0xbc9d2316	-0.01918177
121	0x3d57971d	0.052634347
122	0x3e14343e	0.14473054
123	0x3de88d68	0.11355096
124	0xbe76a78e	-0.24087355
125	0xbba26780	-0.004956186
126	0xbd409b82	-0.047023304
127	0x3cc75670	0.024333209
128	0xbe2158af	-0.15756486
129	0x3e281154	0.1641286
130	0x3da1ebc9	0.079063006
131	0x3dcd2111	0.100160725
132	0xbd9f805d	-0.07788155
133	0x3d26aad4	0.04069026
134	0xbdc30225	-0.095218934
135	0xbe5bb87e	-0.21457097
136	0xbdbdf8df	-0.09275984
137	0xbe95f007	-0.2928469
138	0x3e451411	0.19245936
139	0x3e0d619c	0.13806766
140	0x3d6ab3ca	0.057300366
141	0xbd4ac370	-0.04950279
142	0xbed59c2d	-0.41720715
143	0x3db9a23e	0.09064148
144	0xbde4171b	-0.111372195
145	0x3a473de7	0.0007600472
146	0xbac881ec	-0.0015297509
147	0xbe14e202	-0.1453934
148	0x3c4b3e5b	0.012405003
149	0x3e499401	0.19685365
150	0xbeb76c92	-0.3582502
151	0x3ccfe6dc	0.025378637
152	0x3c4a46ac	0.012345951
153	0x3d934c1f	0.07192253
154	0x3e732c3e	0.23747346
155	0xbe163451	-0.14668395
156	0x3cc5b340	0.024133325
157	0x3e8e1a25	0.27754322
158	0x3eac2491	0.33621648
159	0x3cdfc552	0.02731577
160	0xbe8fc11d	-0.2807702
161	0xbcf1b45e	-0.029504951
162	0xbe2e7c2b	-0.17039554
163	0x3d544001	0.05181885
164	0x3e0daf5a	0.13836423
165	0xbe15c738	-0.14626777
166	0x3c34503a	0.011005456
167	0xbeb86a49	-0.3601859
168	0x3e9f3225	0.31092945
169	0xbe7df3a4	-0.24799973
170	0xbe80eb2d	-0.25179425
171	0xbf27e183	-0.6557848
172	0xbe779bcf	-0.2418053
173	0xbd748d98	-0.059705347
174	0x3e11753e	0.1420488
175	0xbe7ee92b	-0.24893634
176	0xbebbc4dc	-0.3667363
177	0xbe1e0846	-0.15432844
178	0xbedec608	-0.4351046
179	0x3e0d93a8	0.13825858
180	0xbdd7a7b2	-0.10530032
181	0xbeaf7d2f	-0.34275195
182	0xbe70e3a8	-0.23524344
183	0xbec12865	-0.3772613
184	0xbe11052e	-0.14162132
185	0xbe2f0594	-0.17091972
186	0x3ed955fe	0.4244842
187	0x3e119ef2	0.14220789
188	0xbf2b0920	-0.668108
189	0xbd8eaf59	-0.06967039
190	0x3dc01c54	0.09380403
191	0x3c4e62d9	0.012596809
192	0x3c90a4fa	0.017656792
193	0x3e2ad368	0.16682208
194	0xbedf061e	-0.43559355
195	0xbe753474	-0.2394579
196	0xbdf3c2ad	-0.11902366
197	0xbe398b8a	-0.18119636
198	0xbcd8df88	-0.026473776
199	0xbb78ed13	-0.0037983104
200	0xbe2e5637	-0.17025076
201	0x3c961cf0	0.018324345
202	0xbd034232	-0.03204555
203	0x3e76a483	0.24086194
204	0xbc790ca3	-0.015200767
205	0x3de247aa	0.11048825
206	0xbb8f3bd2	-0.004371145
207	0xbda153e6	-0.078773305
208	0xbd254bb1	-0.040355388
209	0xbec16b55	-0.377772
210	0x3dec9f6b	0.11553844
211	0xbdaa297e	-0.08308695
212	0xbea70c06	-0.3262636
213	0x3e3dadcf	0.18523334
214	0xbe98068b	-0.29692492
215	0x3d53868a	0.05164198
216	0xbbcad8b6	-0.0061903847
217	0xbdcdab7e	-0.10042475
218	0x3e1b0412	0.15138271
219	0xbed944da	-0.42435342
220	0x3ec82483	0.39090356
221	0xbec41887	-0.38299963
222	0xbdfa44b9	-0.12220139
223	0xbe40c781	-0.18826105
224	0xbe43ea7b	-0.19132416
225	0xbd4ccd4e	-0.05000048
226	0x3dcd2ef1	0.10018719
227	0x3e205e33	0.15660934
228	0xbdb6c2d4	-0.08923879
229	0x3d9aa691	0.07551301
230	0x3f0a4da4	0.5402472
231	0x3ce8da81	0.028424503
232	0x3ddd54be	0.10807179
233	0x3d3aab63	0.045573603
234	0xbe8d306e	-0.2757601
235	0x3d80db43	0.06291821
236	0x3e2c2b63	0.16813426
237	0x3c2fb6a0	0.010724694
238	0xbe890d3f	-0.26767918
239	0xbc9d60ff	-0.01921129
240	0xbd56d0f4	-0.052445367
241	0x3c93e6f4	0.018054463
242	0xbe1821d2	-0.14856651
243	0xbe2eca24	-0.17069298
244	0xba346bf2	-0.000688254
245	0xbeace191	-0.33765844
246	0xbd46f02e	-0.048568897
247	0x3e5618ef	0.20907949
248	0xbe9839f5	-0.29731718
249	0xbe3d536a	-0.18488851
250	0xbe0f60b8	-0.14001739
251	0x3d9a98ca	0.075486735
252	0xbe3b6fd9	-0.18304385
253	0x3d79537a	0.060870625
254	0xbeaf01f8	-0.3418119
255	0xbe982a11	-0.29719594

fc.1.bias f4 [32]
0	0x3dc50f98	0.09622115
1	0xbdaa6b10	-0.08321202
2	0xbe0d5d17	-0.13805042
3	0xbd8c4e52	-0.06850876
4	0xbd087441	-0.033313993
5	0x3d6e4497	0.05817088
6	0x3d2b8932	0.041878887
7	0x3c01926c	0.007908445
8	0xbd217d7b	-0.039426308
9	0xbe4b81b6	-0.198737
10	0x3e627268	0.22113955
11	0x3d258765	0.040412325
12	0x3e647b21	0.22312595
13	0xbc806d15	-0.015677014
14	0x3d979bdc	0.07402775
15	0x3cbbe0b1	0.02293429
16	0xbd12c3cf	-0.03583127
17	0x3e2c8347	0.16846953
18	0x3d974999	0.073870845
19	0xbc4299ab	-0.011877458
20	0x3c3ff6f3	0.011716592
21	0xbd6d38d5	-0.057915527
22	0x3e7bfe09	0.24608625
23	0x3d3efd27	0.046628144
24	0x3de81378	0.11331838
25	0xbdecc442	-0.11560871
26	0x3dc252d1	0.09488452
27	0x3d3b6115	0.04574688
28	0x3db5d7cb	0.0887905
29	0x3d500841	0.05078912
30	0x3e1eb9a8	0.1550051
31	0x3eb142c9	0.34621266

fc.2.weight f4 [4, 32]
0	0xba3e058c	-0.00072487514
1	0xbe84bf96	-0.25927418
2	0x3bd17b83	0.0063928976
3	0x3d80f208	0.06296164
4	0xbdf87f92	-0.12133707
5	0x3e70cf7e	0.23516652
6	0x3e0819e0	0.1329112
7	0x3dc72291	0.0972339
8	0xbe953a77	-0.29146168
9	0xbe01ed1f	-0.12688111
10	0x3e594a63	0.21219783
11	0x3ea7d359	0.32778433
12	0x3c6b8e05	0.014377122
13	0x3df56654	0.11982408
14	0xbe11cef2	-0.142391
15	0x3e7a92c6	0.24470052
16	0x3d526f4d	0.051375676
17	0x3e365c8b	0.1780874
18	0xbe29fe1f	-0.16600846
19	0x3e5d02d8	0.21583116
20	0xbe9b775a	-0.30364496
21	0x3ee24945	0.44196525
22	0x3dc21f38	0.09478611
23	0xbd1295a0	-0.035787225
24	0x3e08f728	0.13375533
25	0x3d4d7592	0.050160952
26	0xbec02bd8	-0.3753345
27	0xbe0f608b	-0.14001672
28	0x3e67f7a8	0.22653067
29	0x3c9c0124	0.019043513
30	0x3e1595c8	0.14607918
31	0x3e3b335d	0.18281312
32	0xbe9ddb07	-0.30831167
33	0xbd9bd9f8	-0.076099336
34	0xbe2d71b6	-0.16937909
35	0xbe8c4317	-0.27394935
36	0xbdab3f2a	-0.08361657
37	0x3e6028b4	0.21890527
38	0xbe3707b7	-0.17874037
39	0x3e314501	0.17311479
40	0xbdc534ea	-0.09629233
41	0xbe3318b8	-0.17489898
42	0x3de69514	0.11258903
43	0xbd937832	-0.0720066
44	0xbf52f97f	-0.8241195
45	0x3da9f499	0.082986064
46	0xbeb71bae	-0.35763305
47	0x3de9492f	0.11390912
48	0xbe63b172	-0.22235659
49	0x3e502dce	0.20329973
50	0x3dc9ab8d	0.09847174
51	0x3e6c704c	0.23089713
52	0xbded1933	-0.11577072
53	0x3ed5a462	0.41726977
54	0x3df1bac3	0.118032
55	0x3eeaebcc	0.45883024
56	0x3dcae3ad	0.09906707
57	0xbe06c7e3	-0.13162188
58	0xbd548a36	-0.05188962
59	0xbe7e9d62	-0.24864724
60	0x3e5d0d28	0.2158705
61	0x3d34c43e	0.044132464
62	0x3e8aea17	0.2713172
63	0x3e14b96d	0.1452386
64	0x3f281b47	0.6566662
65	0xbe428932	-0.18997648
66	0x3f19afec	0.6003406
67	0x3d1458d8	0.03621754
68	0x3e6e9e82	0.23302653
69	0x3cf346ef	0.02969691
70	0xbeeb8565	-0.4600021
71	0xbe1d720a	-0.15375534
72	0xbd8f6805	-0.07002262
73	0xbdee53d0	-0.1163708
74	0xbd790e24	-0.0608045
75	0x3e35a1cc	0.17737502
76	0xbc476696	-0.0121704545
77	0x3efe5b1f	0.49678895
78	0x3ea638ca	0.32465202
79	0x3d097d6b	0.033566874
80	0xbe4625ef	-0.19350408
81	0x3dd6eda5	0.10494546
82	0x3da9b20d	0.082859136
83	0x3ec11441	0.37710765
84	0xbe2df303	-0.16987233
85	0x3ec07adf	0.37593743
86	0x3ba8f959	0.0051566777
87	0xbec1e6c0	-0.3787136
88	0x3e3b958a	0.18318763
89	0xbe95887d	-0.29205695
90	0xbe998b61	-0.2998915
91	0xbe2c34d3	-0.16817026
92	0x3e870942	0.2637425
93	0x3ef3fd87	0.47654364
94	0xbd4acefc	-0.049513802
95	0x3e766c63	0.24064784
96	0x3ed7041c	0.41995323
97	0x3cebd6c9	0.028788941
98	0x3e945105	0.28968063
99	0x3ef76865	0.48321834
100	0xbba2d632	-0.0049693817
101	0xbd41d61c	-0.04732333
102	0xbec319a0	-0.38105488
103	0x3d6d299e	0.057901017
104	0xbe02419e	-0.12720343
105	0xbdd8c835	-0.105850615
106	0x3df32fda	0.11874361
107	0x3e19584a	0.14975086
108	0xbee1a2fd	-0.44069663
109	0x3ddbdcaf	0.107354514
110	0xbeb23bb8	-0.34811187
111	0x3e18f882	0.14938548
112	0xbe7e8a1c	-0.24857372
113	0x3d2dd706	0.04244139
114	0x3b653b7c	0.0034978082
115	0x3ec20735	0.37896124
116	0xbdf7165b	-0.12064811
117	0x3e176b2a	0.14786974
118	0x3e9e6258	0.30934405
119	0x3e944189	0.2895625
120	0x3e418fce	0.18902513
121	0x3da9eef2	0.08297528
122	0xbe1c5dbd	-0.15270133
123	0xbeecc941	-0.46247295
124	0x3d11a4f8	0.035557717
125	0x3ec08694	0.37602675
126	0x3e0e339b	0.13886873
127	0x3dba0cc9	0.0908447

fc.2.bias f4 [4]
0	0x3e738b10	0.23783517
1	0x3e8bd477	0.27310535
2	0x3ea18100	0.31543732
3	0x3e2b63e1	0.1673732
